MHIM/pretrain/HTGReDial/10-epoch.pth (torch, 594207 bytes, 4 tensors)

weight f4 [8, 128, 128]
-0.07795911 0.084030606 0.093097515 -0.048639894 -0.12364346 -0.08104453 0.13233715 0.11899663
0.0063627306 0.0034133277 -0.010994371 -0.062464494 0.047087193 0.06995791 0.11812199 0.026055058
0.052045457 0.10890835 0.01439653 -0.097644895 0.13805622 -0.061994106 0.13215023 -0.023461832
-0.02911666 -0.14488491 -0.17950343 0.1758979 -0.09824606 -0.07079723 0.028473327 0.0490946
0.10963952 -0.06561514 -0.0010424048 -0.068562895 -0.069871396 -0.13952304 0.07047213 0.029690836
0.007434027 0.14353877 0.13863389 0.0972002 0.018810472 -0.14000589 0.0655493 -0.045850653
0.10411067 0.11017216 -0.1688688 0.16146642 -0.015330369 0.025111873 -0.03953052 0.09801866
-0.08242605 0.04434181 0.059399806 0.15738314 0.012981276 0.13513716 -0.054385517 0.07297065
0.08146376 0.1616098 0.09110553 0.09134842 -0.020150175 -0.1274889 0.034327086 0.02006531
-0.039725315 -0.15522996 -0.14899664 -0.036407087 -0.049150966 -0.034612156 -0.15584286 -0.045036376
0.12906241 0.1753948 0.13197955 -0.10733439 0.11484716 -0.04126167 -0.14215928 -0.10782022
0.07007297 -0.104814135 -0.15292665 -0.06739535 -0.06979502 -0.031047069 -0.004009666 -0.14730363
0.097155966 -0.13374797 0.12073022 0.1833897 0.10847909 0.12940393 -0.071089596 0.09833696
-0.017176801 -0.040831313 -0.03851881 0.16455299 -0.043080423 -0.07761003 -0.043112446 0.16012852
0.07588299 0.049711097 -0.12205931 -0.17912224 -0.12896904 -0.15053101 0.17022994 -0.082607
-0.073937 -0.1757079 0.029618392 0.12017212 -0.00090086134 -0.058286525 0.090590335 -0.022459256
0.11261777 0.12358814 -0.012889963 0.032745525 -0.11165657 0.146894 0.043937817 -0.037553836
-0.0065917987 -0.07967704 0.1255024 -0.09135342 0.06632545 0.09746821 0.00080178765 -0.13031693
0.10133594 0.057846602 -0.059157744 -0.051247455 -0.019346055 -0.014955062 0.13302614 -0.06582164
0.10081691 -0.05357298 0.050903328 0.011316873 -0.06566421 0.027564304 0.01897803 0.1654827
-0.13317667 -0.11535338 0.030707102 0.0018751203 0.06429577 0.07174068 -0.008064583 -0.049101926
-0.13778195 0.14333804 0.018271731 0.12016282 -0.05477186 0.14453645 -0.11966441 -0.1297824
-0.05168305 0.010667961 -0.04264046 -0.11614954 0.103903934 -0.12308148 0.07606524 0.0050089266
0.10769568 -0.13087006 -0.1525981 0.099985994 -0.087435976 0.0030577874 0.107299775 -0.013664626
0.11490129 -0.1492539 -0.15599112 0.13474175 -0.1752443 -0.00081188325 -0.0014643656 0.07936757
0.13098177 -0.019436914 -0.029694038 -0.07145007 -0.050298806 -0.06399734 0.15584278 -0.15971772
-0.13335733 -0.09576662 -0.03245 -0.04658388 0.016290495 0.026664296 -0.0904219 0.06653796
0.16134724 -0.07445396 -0.027393533 0.16559167 0.010375847 -0.043841943 0.013186678 -0.03530891
-0.033250373 0.09013014 -0.07008115 -0.067040406 -0.009055462 -0.124198146 -0.07272318 0.07266259
0.07018354 -0.20289958 -0.046104543 0.00031320142 -0.053044397 0.12280442 -0.14660591 -0.14949481
0.08508366 -0.1318465 -0.12153873 0.09332751 0.08662428 -0.06938946 -0.05269918 0.02666539
0.099737644 -0.09517063 0.03754751 0.15688795 0.049309917 -0.103197515 -0.14846581 -0.037871048
00000000: 07a9 9fbd 3d18 ac3d e9a9 be3d a03a 47bd
00000010: c838 fdbd adfa a5bd 6483 073e 81b4 f33d
00000020: 747e d03b 23b2 5f3b bc21 34bc c5da 7fbd
00000030: 80de 403d 1846 8f3d f1e9 f13d 6b71 d53c
00000040: 9e2d 553d 570b df3d 6cdf 6b3c 0cfa c7bd
00000050: 9c5e 0d3e 88ed 7dbd 6452 073e 0733 c0bc
00000060: 1086 eebc b65c 14be bfcf 37be 941e 343e
00000070: 3b35 c9bd 23fe 90bd e540 e93c 6b17 493d
00000080: af8a e03d 3b61 86bd 4da1 88ba b46a 8cbd
00000090: bc18 8fbd 21df 0ebe b153 903d 323a f33c
000000a0: 2399 f33b d4fb 123e 0bf6 0d3e e610 c73d
000000b0: 6b18 9a3c b45d 0fbe b63e 863d e5cd 3bbd
000000c0: fa37 d53d f1a1 e13d f1eb 2cbe 7457 253e
000000d0: 3a2c 7bbc 6ab7 cd3c c1ea 21bd 02be c83d
000000e0: fdce a8bd c29f 353d 364d 733d 0c29 213e
000000f0: 6baf 543c 6561 0a3e 59c3 5ebd a371 953d
00000100: 79d6 a63d 0a7d 253e 8995 ba3d e114 bb3d
00000110: fb11 a5bc 738c 02be 8f9a 0c3d 0160 a43c
00000120: 03b7 22bd 9af4 1ebe 9392 18be 991f 15bd
00000130: 8652 49bd 7ac5 0dbd 4595 1fbe 1078 38bd
00000140: f028 043e b29a 333e a625 073e 22d2 dbbd
00000150: fd34 eb3d ff01 29bd 3492 11be d9d0 dcbd
00000160: 6b82 8f3d cba8 d6bd ce98 1cbe 9306 8abd
00000170: b1f0 8ebd 6c56 febc 8463 83bb c3d6 16be
00000180: b5f9 c63d 3af5 08be 6841 f73d 82ca 3b3e
00000190: 492a de3d 7782 043e 6c97 91bd e364 c93d
000001a0: 5db6 8cbc bc3e 27bd e6c5 1dbd 9480 283e
000001b0: 1975 30bd 02f2 9ebd ad96 30bd bbf8 233e
000001c0: 8b68 9b3d dd9d 4b3d 3bfa f9bd d26b 37be
000001d0: 7610 04be cd24 1abe c250 2e3e dc2d a9bd
000001e0: 486c 97bd c6ec 33be 45a2 f23c cd1c f63d
000001f0: c827 6cba dabd 6ebd 6d87 b93d 79fc b7bc
00000200: 25a4 e63d c71b fd3d 6c30 53bc 2c20 063d
00000210: 33ac e4bd 616b 163e 24f8 333d 0dd2 19bd
00000220: 0400 d8bb b72d a3bd b383 003e 8017 bbbd
00000230: a3d5 873d 6a9d c73d 0f2f 523a cd71 05be
00000240: 3889 cf3d 8ff0 6c3d 644f 72bd dae8 51bd
00000250: 9e7b 9ebc 1406 75bc 0138 083e 7fcd 86bd
00000260: 1979 ce3d 576f 5bbd 0280 503d 686a 393c
00000270: f57a 86bd 89ce e13c d077 9b3c 4c74 293e
00000280: 775f 08be 653e ecbd 768d fb3c 99c6 f53a
00000290: 80ad 833d c7ec 923d 5021 04bc 1a1f 49bd
000002a0: b616 0dbe 35c7 123e 99ae 953c ed17 f63d
000002b0: 7558 60bd 5d01 143e 9d12 f5bd ade5 04be
000002c0: 9bb1 53bd acc8 2e3c c3a7 2ebd cfdf edbd
000002d0: 96cb d43d 2512 fcbd 18c8 9b3d ec21 a43b
000002e0: 8d8f dc3d cd02 06be ad42 1cbe 75c5 cc3d
000002f0: a211 b3bd 2965 483b fcbf db3d 98e1 5fbc
00000300: 5e51 eb3d 04d6 18be 23bc 1fbe bef9 093e
00000310: 3e73 33be 90d4 54ba f5ef bfba 778b a23d
00000320: 1620 063e 2a3a 9fbc e940 f3bc 6a54 92bd
00000330: 1f06 4ebd 0a11 83bd 4095 1f3e 0b8d 23be
00000340: d38e 08be 4a21 c4bd 4bea 04bd bdce 3ebd
00000350: a573 853c 156f da3c 1e2f b9bd 0e45 883d
00000360: 3638 253e 517b 98bd 6768 e0bc dd90 293e
00000370: 75ff 293c 9c93 33bd f00c 583c 13a0 10bd
00000380: 8b31 08bd 2796 b83d b586 8fbd 7b4c 89bd
00000390: 5c5d 14bc 995b febd e4ef 94bd 20d0 943d
000003a0: 63bc 8f3d e8c4 4fbe 1ed8 3cbd 2f35 a439
000003b0: 1545 59bd e280 fb3d dc1f 16be 2b15 19be
000003c0: 5840 ae3d c502 07be 4ce9 f8bd 7e22 bf3d
000003d0: 1268 b13d 101c 8ebd 18db 57bd 6071 da3c
000003e0: 4043 cc3d d2e8 c2bd 6bcb 193d 3ca7 203e
000003f0: 32f9 493d 3859 d3bd 6c07 18be ac1e 1bbd

comp f4 [56, 8]
-0.13375339 0.13265021 0.0073402016 0.019221004 0.017032959 -0.11753203 0.09182844 -0.1685748
0.31246525 -0.31316683 -0.3528211 -0.26371476 0.26872095 -0.34594297 -0.40765947 -0.4156047
-0.22078547 -0.29621115 -0.0053018006 0.043314718 -0.16999096 -0.14303562 -0.17242837 -0.07717585
-0.37520987 0.27591264 0.18915674 -0.42168975 0.31388685 -0.50910383 0.2458058 0.034485936
-0.19671024 -0.087488025 0.15724938 -0.12729517 0.30166245 -0.42807126 -0.12913089 0.36782488
0.17001055 -0.033918872 -0.07973137 -0.35591832 0.10975448 -0.13217779 0.38416547 0.22506426
-0.13091424 0.11574319 -0.30083779 -0.38601264 -0.102971815 -0.3598052 0.27071545 -0.012564295
-0.5179677 0.24543476 0.4950219 0.5143083 0.29360273 0.017117776 -0.121734194 0.109194726
0.489121 -0.33974314 -0.44569337 -0.5383803 0.30993888 0.2847769 -0.20915663 0.007013062
0.22723152 0.4241945 0.3025086 -0.06354958 -0.06679913 0.39803526 0.38767913 -0.24182837
-0.032182176 0.22793739 -0.078192815 0.3578586 -0.3102197 0.4114526 -0.5410891 -0.0415568
-0.10759216 0.05796236 -0.28666434 0.27956998 0.012880779 -0.34379935 0.038157187 0.12034688
0.16772202 0.03434844 0.058943275 0.29672852 0.2906552 -0.39529726 0.2989869 0.34222832
0.060029898 -0.25957474 -0.13342021 0.00012191587 0.084175564 0.033677083 0.05635335 -0.24131335
0.24862376 -0.31926888 0.2176719 -0.39877862 0.26122558 0.25188738 0.41581327 -0.36269477
0.44610155 -0.273259 -0.1753658 -0.23182389 0.38123867 -0.05067569 0.03848052 0.18661276
-0.4260614 -0.03755306 0.106230825 -0.4426193 0.021513898 0.3647402 -0.31377378 -0.11528228
-0.13678256 -0.2577727 -0.0039208946 -0.090232536 0.39345622 0.4325564 -0.2303608 -0.43036225
-0.09727041 0.44979334 0.3199218 -0.085649215 0.47019935 -0.15096956 0.17727263 -0.22316252
0.40260756 0.086418435 0.40811506 -0.22584765 -0.4098762 0.08253737 -0.1557556 -0.30609
0.29415902 -0.52038866 -0.08033283 0.035208635 -0.15312152 0.13599235 0.19039756 0.16593498
-0.09740388 -0.04995812 0.011932588 0.12165692 -0.2772866 0.363199 0.2641814 0.03343858
0.02294958 -0.2665173 -0.32132822 0.17293917 -0.106274165 0.022975553 -0.13378192 0.4205257
-0.028450685 -0.24718817 -0.34474266 0.20292252 0.26001477 -0.390679 0.3071665 0.15519191
-0.22654037 0.46688062 -0.34531713 0.111904554 0.32066536 0.014138742 -0.31613374 -0.29904765
-0.060310546 -0.07837987 0.18674414 0.12154392 -0.36662135 0.4556543 -0.42272943 0.05233872
-0.28814906 0.15647365 -0.293443 -0.13161705 0.06483242 -0.41314918 0.28099367 0.36434412
0.2571874 0.1163212 -0.013022877 0.054572783 -0.19655211 0.28874072 0.2804425 0.1321985
-0.3054366 -0.2741447 0.089803495 -0.45443082 -0.23041452 -0.23939759 0.044917442 0.008809413
0.20334323 0.18146548 0.00051804655 -0.37795356 -0.17717417 -0.46745524 0.18685418 0.13947934
-0.25296178 -0.3315711 0.18036824 -0.119165406 0.100397564 -0.17147753 0.22567979 0.055465344
-0.033266198 -0.31359303 -0.2655126 0.12991051 -0.06160416 -0.3790592 -0.21767874 0.21845879
00000000: a6f6 08be 75d5 073e 1386 f03b 5e75 9d3c
00000010: b488 8b3c a2b4 f0bd 8d10 bc3d df9e 2cbe
00000020: 72fb 9f3e 6757 a0be f8a4 b4be 9f05 87be
00000030: cb95 893e 701f b1be beb8 d0be 24ca d4be
00000040: 9615 62be fda8 97be baba adbb c66a 313d
00000050: 1c12 2ebe ee77 12be 1091 30be 5f0e 9ebd
00000060: 821b c0be 6c44 8d3e 4eb2 413e b8e7 d7be
00000070: c7b5 a03e a154 02bf 84b4 7b3e 2041 0d3d
00000080: 696e 49be ec2c b3bd fb05 213e aa59 02be
00000090: 8073 9a3e 282c dbbe e33a 04be 8b53 bc3e
000000a0: 3f17 2e3e 84ee 0abd 334a a3bd ed3a b6be
000000b0: f5c6 e03d 9d59 07be 56b1 c43e 3f77 663e
000000c0: 620e 06be c40a ed3d 6907 9abe 73a3 c5be
000000d0: e3e2 d2bd 6338 b8be 379b 8a3e 79da 4dbc
000000e0: 8899 04bf 4053 7b3e 8373 fd3e b5a9 033f
000000f0: 1953 963e 943a 8c3c c74f f9bd 7ca1 df3d
00000100: 116e fa3e d0f2 adbe ec31 e4be 4bd3 09bf
00000110: 4fb0 9e3e 47ce 913e 282d 56be d4cd e53b
00000120: 61af 683e 0630 d93e 68e2 9a3e 4826 82bd
00000130: fbcd 88bd 47cb cb3e e17d c63e dba1 77be
00000140: 75d1 03bd 6b68 693e 8e23 a0bd 3e39 b73e
00000150: 1ed5 9ebe eaa9 d23e d184 0abf 7737 2abd
00000160: 4759 dcbd f169 6d3d abc5 92be cc23 8f3e
00000170: e709 533c 7806 b0be b64a 1c3d 6d78 f63d
00000180: 52bf 2b3e f3b0 0c3d 816e 713d cdec 973e
00000190: c2d0 943e 6764 cabe d014 993e 8d38 af3e
000001a0: e9e1 753d fbe6 84be 4f9f 08be 16ad ff38
000001b0: 3d64 ac3d fbf0 093d c5d2 663d d91a 77be
000001c0: 3a97 7e3e 3677 a3be 62e5 5e3e b62c ccbe
000001d0: 5cbf 853e 62f7 803e 7ae5 d43e 21b3 b9be
000001e0: 6c67 e43e 9be8 8bbe 1893 33be 3e63 6dbe
000001f0: b731 c33e 5091 4fbd c09d 1d3d 6a17 3f3e
00000200: b824 dabe 3dd1 19bd 8c8f d93d ff9e e2be
00000210: ea3d b03c 3abf ba3e f5a6 a0be 1e19 ecbd
00000220: ba10 0cbe c9fa 83be d97a 80bb d6cb b8bd
00000230: 1873 c93e 0878 dd3e b4e3 6bbe 7158 dcbe
00000240: b535 c7bd 504b e63e cacc a33e db68 afbd
00000250: f8bd f03e c497 1abe f586 353e b784 64be
00000260: 9422 ce3e 26fc b03d 75f4 d03e 9b44 67be
00000270: 4bdb d1be 5a09 a93d 657e 1fbe d4b7 9cbe
00000280: 039c 963e 3138 05bf 8a85 a4bd ee36 103d
00000290: e3cb 1cbe 9441 0b3e 94f7 423e dcea 293e
000002a0: af7b c7bd e3a0 4cbd e780 433c 4327 f93d
000002b0: 82f8 8dbe 38f5 b93e c942 873e e4f6 083d
000002c0: c200 bc3c f574 88be 2285 a4be f716 313e
000002d0: 45a6 d9bd 3a37 bc3c 21fe 08be 254f d73e
000002e0: 6911 e9bc e51e 7dbe 1c82 b0be ecca 4f3e
000002f0: a820 853e 1407 c8be ed44 9d3e a1ea 1e3e
00000300: 33fa 67be fa0a ef3e 68cd b0be 372e e53d
00000310: 402e a43e 2fa6 673c 48dc a1be c61c 99be
00000320: 3108 77bd a085 a0bd db39 3f3e 05ec f83d
00000330: cbb5 bbbe 854b e93e fe6f d8be 2061 563d
00000340: 4688 93be a13a 203e 293e 96be 9fc6 06be
00000350: dcc6 843d 4a88 d3be 67de 8f3e 508b ba3e
00000360: 11ae 833e cf39 ee3d e85d 55bc b687 5f3d
00000370: f544 49be d3d5 933e 2996 8f3e 0b5f 073e
00000380: 3062 9cbe b25c 8cbe e5ea b73d 28ab e8be
00000390: c9f1 6bbe a424 75be 5afb 373d 5b55 103c
000003a0: 3539 503e 16d2 393e 84cd 073a 2183 c1be
000003b0: 256d 35be 4b56 efbe b456 3f3e acd3 0e3e
000003c0: 3584 81be b0c3 a9be 74b2 383e fe0c f4bd
000003d0: 3d9d cd3d ce97 2fbe 9a18 673e a12f 633d
000003e0: 2342 08bd 448f a0be 44f1 87be 4307 053e
000003f0: a554 7cbd 0c14 c2be 2de7 5ebe a9b3 5f3e

root f4 [128, 128]
0.028751256 0.1359847 0.08668448 -0.10698031 -0.120100744 0.13650298 0.066871636 0.101953305
-0.04295508 0.048397 -0.08311573 0.0027884548 0.12717485 0.028837271 0.04140676 0.0016965305
-0.13958116 -0.045062587 -0.02861011 0.09053627 0.05790846 -0.0895168 0.1088886 0.1462362
-0.11147762 -0.019940928 -0.014438169 0.07151091 -0.091812395 0.067928985 -0.10377895 0.026118465
0.046834968 -0.021841472 0.05568198 0.009553313 -0.07408876 0.14477065 -0.09169407 0.01309802
0.046105005 -0.0604296 -0.10639726 0.095131226 0.13669293 -0.082094155 -0.087553486 0.030788053
0.038356386 -0.036983255 0.09806824 0.13493906 0.070650585 -0.10741079 0.09742103 -0.07597619
0.02786026 0.0055818614 0.039515827 -0.06357686 0.039362624 -0.10570802 -0.047416266 0.1407489
0.11005404 -0.028366875 0.13489021 -0.0009779789 0.063284546 -0.01828839 0.11097285 -0.092046715
-0.06579848 0.12400766 -0.06300748 0.08786357 -0.08132006 -0.07524475 -0.05306564 -0.07282791
-0.116745636 0.12950063 0.04460495 0.11775024 0.053781558 0.12755004 0.11084675 0.006279326
0.04903895 0.08094694 0.078319795 -0.047135185 -0.010475259 0.16093422 -0.07945107 -0.07531769
-0.08733541 0.059040595 0.01131614 0.15455417 -0.037401304 -0.12229106 0.06612523 0.078684814
-0.06203831 -0.13828589 -0.07084044 -0.012455386 0.07193523 0.11472251 0.07102912 -0.11654804
0.16014707 0.11717385 0.13379814 0.055221435 0.08468475 0.03522784 0.0728945 0.07839279
-0.034808487 -0.08265011 0.08166148 0.11981455 -0.07247649 -0.073364004 -0.014833179 0.060298327
-0.033896327 -0.06338219 -0.011557863 0.11663561 -0.03789612 0.041205596 0.011615656 0.061332226
-0.023980305 0.14593408 -0.14380962 0.10405783 -0.024077684 0.15596747 0.061363883 0.014558158
-0.071202554 -0.03189895 -0.09676887 -0.081616186 0.09893856 0.027482161 0.17404869 0.06770054
-0.100740194 0.08745388 0.041712973 -0.029604152 0.124949805 0.032117784 0.0152460355 0.06726439
0.025495965 0.13071498 0.08070488 -0.14357588 0.024860302 -0.064085215 0.06466487 0.08275725
0.08634903 0.073644824 0.12194115 -0.124382794 -0.03446204 -0.14327952 -0.06568837 -0.011411774
0.04358931 0.10050578 0.0757913 0.07184396 0.04474795 -0.12165667 -0.019757204 -0.1314633
-0.001556374 0.07471437 -0.052216105 -0.12886238 -0.07459384 -0.06913853 0.032215457 0.1317682
-0.09727255 -0.105581306 -0.11212887 -0.09083823 -0.10877685 0.088073984 0.10556949 0.05235473
0.0815419 -0.11593857 -0.03075772 0.07404486 0.1359454 -0.12707105 -0.10309179 -0.12857488
0.110856496 -0.055951305 0.067731455 0.036801588 -0.045744732 0.030792857 -0.009773376 -0.034720138
-0.0059382506 0.11283294 -0.11128649 0.007136969 -0.10954307 -0.055133305 0.08253871 -0.0007855622
-0.025867775 0.06474861 -0.10309248 -0.077357836 -0.025381656 0.07820824 0.057832386 -0.109557085
-0.047568932 -0.019174607 0.052037902 0.14834118 0.09555896 0.090350196 -0.13467918 0.03183069
0.027273014 0.026252935 -0.15600275 0.07432249 0.06211706 -0.08988086 0.109468415 0.0031707226
0.008976613 -0.07122441 0.12688749 0.06117822 -0.00850741 0.08558925 -0.13761434 -0.14637078
00000000: c187 eb3c 933f 0b3e a287 b13d 7e18 dbbd
00000010: 61f7 f5bd 70c7 0b3e fff3 883d e5cc d03d
00000020: aaf1 2fbd ef3b 463d 9438 aabd 82be 363b
00000030: 203a 023e 243c ec3c 239a 293d 1e5e de3a
00000040: 5dee 0ebe 8c93 38bd c05f eabc 146b b93d
00000050: 6c31 6d3d 9654 b7bd fc00 df3d f1be 153e
00000060: 614e e4bd 285b a3bc 128e 6cbc 5074 923d
00000070: 2308 bcbd 5a1e 8b3d 0f8a d4bd 64f6 d53c
00000080: 06d6 3f3d e3ec b2bc ca12 643d 8085 1c3c
00000090: d9bb 97bd c23e 143e 1aca bbbd 1499 563c
000000a0: 9ad8 3c3d 0785 77bd cfe6 d9bd 29d4 c23d
000000b0: 3bf9 0b3e fb20 a8bd 3e4f b3bd 3a37 fc3c
000000c0: 961b 1d3d c17b 17bd 00d8 c83d 772d 0a3e
000000d0: 41b1 903d 30fa dbbd ad84 c73d 6899 9bbd
000000e0: 333b e43c 0ce8 b63b 59db 213d 9634 82bd
000000f0: b43a 213d 727d d8bd 8f37 42bd 7b20 103e
00000100: 0364 e13d a661 e8bc a920 0a3e 872f 80ba
00000110: 549b 813d 89d1 95bc bc45 e33d fd82 bcbd
00000120: 5ac1 86bd baf7 fd3d 110a 81bd d1f1 b33d
00000130: 228b a6bd eb19 9abd 5b5b 59bd cd26 95bd
00000140: 5618 efbd d09b 043e aeb3 363d 0a27 f13d
00000150: 0d4a 5c3d 7a9c 023e 9f03 e33d cec2 cd3b
00000160: 11dd 483d 82c7 a53d 2166 a03d d310 41bd
00000170: 6ca0 2bbc f1cb 243e 3eb7 a2bd 2940 9abd
00000180: e8dc b2bd 8dd4 713d 5567 393c 7343 1e3e
00000190: 1c32 19bd bc73 fabd aa6c 873d 8125 a13d
000001a0: e21b 7ebd d19a 0dbe cb14 91bd ad11 4cbc
000001b0: c752 933d a3f3 ea3d b777 913d bdb0 eebd
000001c0: 98fd 233e d8f8 ef3d 6102 093e df2f 623d
000001d0: 336f ad3d 114b 103d b649 953d 668c a03d
000001e0: 5893 0ebd 7644 a9bd 223e a73d 5561 f53d
000001f0: 8e6e 94bd de3f 96bd dd06 73bc 61fb 763d
00000200: e0d6 0abd 86ce 81bd 315d 3dbc a7de ee3d
00000210: f638 1bbd 33c7 283d 984f 3e3c 8037 7b3d
00000220: 5872 c4bc be6f 153e d442 13be 461c d53d
00000230: 903e c5bc f0b5 1f3e b258 7b3d 5785 6e3c
00000240: a5d2 91bd 79a8 02bd c22e c6bd 6326 a7bd
00000250: 4da0 ca3d 4522 e13c d239 323e 95a6 8a3d
00000260: e050 cebd 051b b33d 39db 2a3d 6884 f2bc
00000270: afe5 ff3d f08d 033d 82ca 793c eac1 893d
00000280: eadc d03c 26da 053e 9a48 a53d 8e05 13be
00000290: d5a7 cb3c 1c3f 83bd 046f 843d a27c a93d
000002a0: c3d7 b03d 19d3 963d 48bc f93d 68bc febd
000002b0: 1128 0dbd deb7 12be a087 86bd 73f8 3abc
000002c0: b48a 323d f9d5 cd3d 7838 9b3d ed22 933d
000002d0: a049 373d 2227 f9bd dcd9 a1bc 519e 06be
000002e0: 3fff cbba d903 993d 8ee0 55bd 80f4 03be
000002f0: a8c4 98bd 8098 8dbd 5bf4 033d 3eee 063e
00000300: d536 c7bd 033b d8bd d2a3 e5bd 6509 babd
00000310: 66c6 debd 2260 b43d d134 d83d ea71 563d
00000320: 71ff a63d 3371 edbd 9df7 fbbc d5a4 973d
00000330: 4535 0b3e ea1e 02be ca21 d3bd 22a9 03be
00000340: bb08 e33d 322d 65bd cab6 8a3d 43bd 163d
00000350: d45e 3bbd 4d41 fc3c 8320 20bc b436 0ebd
00000360: a895 c2bb f514 e73d 2cea e3bd 3cdd e93b
00000370: 1e58 e0bd 76d3 61bd 0e0a a93d 30ee 4dba
00000380: a8e8 d3bc eb9a 843d 2622 d3bd c96d 9ebd
00000390: 31ed cfbc a42b a03d a7e1 6c3d 775f e0bd
000003a0: a4d7 42bd 1114 9dbc b225 553d c0e6 173e
000003b0: 6bb4 c33d 8609 b93d 57e9 09be e660 023d
000003c0: a86b df3c 6510 d73c 2fbf 1fbe 6436 983d
000003d0: 756e 7e3d 7513 b8bd fa30 e03d e6cb 4f3b
000003e0: a512 133c 1ade 91bd cbee 013e 0396 7a3d
000003f0: aa62 0bbc 6b49 af3d c6ea 0cbe 39e2 15be

bias f4 [128]
0.0035337524 -0.005038882 0.0053822612 0.0014641166 -0.00032633534 -0.0006989811 0.0070124944 -0.0027476987
-0.009191187 -0.001466348 -0.008111539 -0.003566647 -5.0766557e-06 0.0030156306 0.0007843766 0.002961704
-0.0052529853 0.0040539755 0.0077056554 -0.005669363 0.0048302766 0.00024934617 -0.010662732 -0.004653565
0.0048513166 0.012706502 -0.008029642 0.0049553625 0.0037898505 -0.0014619482 -0.0050240294 0.012599495
-0.0017958292 0.0067491136 -0.005496263 -9.57409e-05 0.0050171595 -0.006251728 0.006003877 0.0023456137
0.0036210886 0.006367321 0.0018400335 0.010414724 0.0026449936 0.00138115 0.0029743144 0.0009952977
0.007694994 -0.0068242433 -0.0028770708 -0.015501951 0.0054359166 -0.0045264442 0.004417854 -0.011333535
-0.012773092 0.004380814 0.00035934962 -0.0058909403 -0.013112443 -0.0076377927 -0.0021218478 -0.0054233777
-0.010327985 -0.001473525 0.0018785631 0.0066924 0.001236744 -0.0007642841 0.012009057 -0.007913733
0.008563211 -0.0031225602 -0.0077958927 -0.00186247 0.0084427195 -0.008317497 -0.0053179315 -0.0031997617
0.004442261 0.0028108202 -0.0044328975 -0.0047873436 0.0055792504 -0.0008476989 -0.0004847106 -0.00048319428
0.0015229022 0.0023386788 -0.00032742522 -0.0027068548 -0.0032158743 0.0018213922 0.0037462849 0.0017078298
0.0027086071 -0.007875491 -0.012873508 -0.013539786 -0.0053471806 0.0036176017 -0.0066315746 0.0053889626
-0.0076989657 0.0045083906 0.001110846 0.00403253 0.0051670466 0.0022544442 0.00082951743 -0.00051360024
-0.00838664 0.0011221733 -0.00025505613 0.0009979997 9.600247e-05 -0.00038948367 -0.008690199 0.008389506
-0.0035717771 -0.004411588 0.003336224 0.0059044063 0.00021808218 0.0059488667 0.004999423 0.0025518434
00000000: 8796 673b 351d a5bb ae5d b03b 9ae7 bf3a
00000010: fd17 abb9 d43b 37ba 11c9 e53b bc12 34bb
00000020: a296 16bc 7932 c0ba 43e6 04bc 68be 69bb
00000030: 2458 aab6 e3a1 453b 9f9e 4d3a 2619 423b
00000040: 3c21 acbb 36d7 843b b97f fc3b 10c6 b9bb
00000050: 4c47 9e3b adba 8239 bdb2 2ebc ef7c 98bb
00000060: cbf7 9e3b ef2e 503c c28e 03bc 9860 a23b
00000070: 245f 783b d79e bfba 9da0 a4bb 1d6e 4e3c
00000080: 0762 ebba ab27 dd3b ff19 b4bb 81c8 c8b8
00000090: fc66 a43b 4cdb ccbb 2cbc c43b deb8 193b
000000a0: c94f 6d3b f6a4 d03b 472d f13a 85a2 2a3c
000000b0: a157 2d3b b407 b53a b7ec 423b a674 823a
000000c0: 4a26 fc3b e79d dfbb 3d8d 3cbb e5fb 7dbc
000000d0: c61f b23b 9152 94bb a5c3 903b 4bb0 39bc
000000e0: 3b46 51bc ee8c 8f3b 1767 bc39 ca08 c1bb
000000f0: 92d5 56bc 7346 fabb b30e 0bbb 97b6 b1bb
00000100: b536 29bc 4b23 c1ba 1e3a f63a ec4b db3b
00000110: 3e1a a23a 3d5a 48ba a3c1 443c 9aa8 01bc
00000120: b64c 0c3c dea3 4cbb b074 ffbb 1f1e f4ba
00000130: 5553 0a3c 1c46 08bc 0b42 aebb 18b3 51bb
00000140: 6390 913b bd35 383b d741 91bb 26df 9cbb
00000150: 25d2 b63b 1c38 5eba c120 feb9 3d55 fdb9
00000160: 1e9c c73a 8544 193b 45aa abb9 7d65 31bb
00000170: 6bc1 52bb c8bb ee3a 3b84 753b 42d9 df3a
00000180: e382 313b 3408 01bc 68eb 52bc fbd5 5dbc
00000190: 6737 afbb 4915 6d3b ae4d d9bb e595 b03b
000001a0: 9b47 fcbb 1fbb 933b ce99 913a 5023 843b
000001b0: 5450 a93b 4cbf 133b f973 593a 21a3 06ba
000001c0: 1e68 09bc e315 933a 0eb9 85b9 50cf 823a
000001d0: ef54 c938 9d33 ccb9 5661 0ebc 2374 093c
000001e0: 7a14 6abb 158f 90bb 8da4 5a3b c079 c13b
000001f0: fdac 6439 b6ee c23b 33d2 a33b d43c 273b
