MHIM/pretrain/HReDial/10-epoch.pth (torch, 593695 bytes, 4 tensors)

weight f4 [8, 128, 128]
00000000: 045d 76bd cb0b 183e cda9 dc3d de87 72bd
00000010: 6907 48be 7672 103d 8c4d d13d 37e5 b53d
00000020: ed3a 363c a9cf 033d 2032 ce3d c61b 03be
00000030: 94f5 7c3d 7f45 e13d 3b57 d03d d15f 333d
00000040: f82e cb3d 278b ce3d c2c5 c13a 58d7 32be
00000050: 4c66 013e 6160 10be 9b57 b93d df30 453c
00000060: 260c 3dbd 7017 05be fb98 16be a02a 2e3e
00000070: 8d01 f6bd 5ef8 3bbd 03a0 ca3c a6c9 39bd
00000080: fcab 013e ea1a c0bd c969 663d 92d1 08be
00000090: ed22 debd 8b7d 1abe 8876 ba3d d206 983c
000000a0: 3d02 38bc 1d88 333e ed8b 0e3e cbd1 a93d
000000b0: 3b4a 23bd bf6a 1ebe 0953 483d ef82 5a3d
000000c0: 2f00 ec3d b46a 093e 77be 36be 2ea7 2b3e
000000d0: ee3a afbd ceca 2b3d cdcc e3bc 8948 a03d
000000e0: 447e c8bc 884d 38bc 96b1 443d b6d5 e83d
000000f0: d3e4 f23b 8e31 1d3e f7b1 c13c 20f3 6a3d
00000100: 0b86 4c3e 92c2 563e 5c75 3bbc c89a 2f3d
00000110: 4e5c 98bd 0d87 f3bd fd17 893d b4db 943d
00000120: 1f34 073c 843f 45be f19b 3dbe 6276 f7bd
00000130: 553b 10bd 7df9 df3c 31b5 3ebe d3ab 13bd
00000140: c667 103e 9b12 143e 5588 013e 7407 a7bd
00000150: ef0d 293e ffd9 99bd 87c6 36be 7b95 f8bd
00000160: 4bf4 17bd cd7b f0bd 3bb6 18be 9da1 e9bd
00000170: 85cb 61bd f586 f7bd 2db5 3ebd 494d 31be
00000180: 6010 68bc 43ff dabd 0072 433e 1d36 3c3e
00000190: dbd1 fc3d d500 183e 8dac e5bc e979 403e
000001a0: 6a93 96bc 4578 febc 38d2 02bd 3679 043e
000001b0: 2d61 5d3b 8707 03be e020 b2bd 8836 583e
000001c0: 2f40 ea3d 0c5d 953d 4b5d f3bd 2d54 63be
000001d0: 7900 f3bd 3f56 31be c561 d93d 0066 cbbd
000001e0: b2f6 d9bd b7a3 1cbe 91db 603c ca45 393a
000001f0: 6fa5 0ebd 2e1e a4bd 27fe b33d 50c4 a5bc
00000200: 4045 c43d 533b c03d 59c5 91bd c468 453c
00000210: 444d 2abe 1bce 3a3e 566f 743d d9a2 a33c
00000220: 4b3b 043b eb42 b3bd 6b42 2f3e 46bf bbbd
00000230: ea37 933d 1321 e33d 1b26 dc3c d827 27be
00000240: 32cf 0e3e 60b5 0b3d fffd 95bd a80d b4bd
00000250: 6bc9 d53b 0b07 cdbc 1e24 1c3e 210a 04be
00000260: 6aa0 053e 3c71 5abd 3ed8 8e3d 365b 3d3c
00000270: f1f0 67bd 7851 94ba 672b 55bc 4374 413e
00000280: 0280 20be b70f d9bd 8373 053c c398 a0ba
00000290: ac2c 923d 6a0f 953d f128 adbc 3dbc 0fbc
000002a0: 2822 15be 89cb 263e 4892 b3bc feb0 f23d
000002b0: 66be b9bc ade3 0e3e 7750 21be 044c ebbd
000002c0: 375d cfbd 7ffb 8f3c a423 59bd db5f eebd
000002d0: e9ee dc3d c9b3 19be 8cf7 cc3d d5ef a63c
000002e0: 8b63 fd3d 34b8 18be 9ff1 36be 1b78 e83d
000002f0: e7b6 d5bd b0db 843c 1850 bf3d 7327 5b3b
00000300: 15d4 bd3d ba58 26be 660d fdbd 58f3 193e
00000310: adf8 12be 7f51 cb3b 4733 c2bc 1894 c33d
00000320: aad6 e23d 9e0c 03bd 3028 c9bc caa8 58bd
00000330: c9d4 efbd 1a0f 54bd f49b 363e 897b 2fbe
00000340: 8dbc 17be 6fa8 07be c4d5 bebc 1337 9cbd
00000350: df34 413c 90ae 1dbb 1f71 0abe c8df a43d
00000360: 239c 523e 2f7d 64bd 302b c0ba b5b3 153e
00000370: d6cc 2e3d 8844 6bbd 676b bb3c 2367 ccbd
00000380: 58d0 3bbd 3aa3 e43d cac3 dabd 5088 8dbd
00000390: eab6 343c d851 13be 9eb8 efbd 3484 963d
000003a0: b620 5e3d 9146 76be a47c 1dbd 96fd 873d
000003b0: 2792 acbd 382b 333e f1fe ccbd 8077 18be
000003c0: 138a cf3c 6ce1 21be 90cb 00be a96f 0a3e
000003d0: 5695 c93d edd1 0abe b74a 3dbd 2a5f b13c
000003e0: 65ea 223e ba3a 14be a63f e23b 83a1 1a3e
000003f0: 6224 8b3c 61f8 ecbd ba09 0dbe 26f5 54bd
-0.0601473 0.14848249 0.107745744 -0.059211604 -0.19534077 0.03526541 0.10219869 0.0888161
0.011122447 0.032180462 0.10068154 -0.12803563 0.06175764 0.109995835 0.10172888 0.04379255
0.09921068 0.10085135 0.0014783668 -0.1746496 0.1263668 -0.14099266 0.090499125 0.012035578
-0.046154164 -0.12997222 -0.14706795 0.17008448 -0.120120145 -0.04589116 0.024734503 -0.045358323
0.12663263 -0.093801335 0.05625323 -0.13361195 -0.10846505 -0.15086953 0.09104639 0.01855794
-0.011231002 0.17532392 0.13920565 0.08291968 -0.039865714 -0.15470408 0.048907313 0.053347524
0.115234725 0.1341961 -0.17846094 0.16762993 -0.08556162 0.041941456 -0.027807618 0.07826335
-0.02447427 -0.011248954 0.04802092 0.11368887 0.007412532 0.15350935 0.02364443 0.05736077
0.19973008 0.2097266 -0.011441555 0.04287222 -0.07439481 -0.11890993 0.066940285 0.072684675
0.008252173 -0.1926251 -0.18516518 -0.120831266 -0.035212833 0.027340645 -0.18623807 -0.036052536
0.14102086 0.14460222 0.12649663 -0.081557184 0.16509221 -0.075122826 -0.1784917 -0.12137886
-0.03709821 -0.11742363 -0.14913265 -0.114077784 -0.055125732 -0.12086288 -0.0465595 -0.17314638
-0.01416406 -0.106932186 0.19086456 0.18380018 0.12344714 0.14844067 -0.02803638 0.18796505
-0.01838084 -0.031063208 -0.03193876 0.12936863 0.0033779845 -0.1279584 -0.08697677 0.21114552
0.11438023 0.07293138 -0.118830286 -0.2220008 -0.118653245 -0.17318057 0.10614351 -0.09931564
-0.106427565 -0.15296827 0.013724224 0.00070675893 -0.03482574 -0.08013569 0.0878871 -0.02023521
0.09583521 0.09386315 -0.07117719 0.012048904 -0.16631037 0.18242685 0.05967649 0.019975113
0.0020176943 -0.08752998 0.1711518 -0.09167342 0.07188399 0.11090293 0.026873639 -0.16323793
0.13946226 0.03410852 -0.073238365 -0.08791667 0.006524255 -0.025027772 0.15248153 -0.12894489
0.13049474 -0.053330645 0.06974839 0.011557391 -0.056626264 -0.0011315783 -0.013010836 0.18892007
-0.15673831 -0.105987005 0.008145216 -0.0012252558 0.07137427 0.072783306 -0.021137686 -0.008772907
-0.14563811 0.1628858 -0.021920338 0.11850165 -0.022673797 0.13954039 -0.15753351 -0.11489108
-0.10125201 0.017575977 -0.053012505 -0.11639377 0.10787756 -0.15009989 0.10008153 0.020378033
0.12372502 -0.14914018 -0.17865609 0.11351033 -0.104352765 0.016218036 0.093414485 0.0033440262
0.09268967 -0.16244784 -0.12356071 0.15034235 -0.14352675 0.0062047835 -0.023706092 0.09549731
0.110761 -0.031994455 -0.024555296 -0.052895345 -0.117105074 -0.051772214 0.17832929 -0.17136969
-0.1481802 -0.13247846 -0.02329529 -0.07627692 0.011792391 -0.0024060346 -0.13519715 0.080504954
0.20567374 -0.055783447 -0.0014661308 0.14619334 0.042675816 -0.057438403 0.022878362 -0.09980609
-0.04585299 0.111639455 -0.10681875 -0.06910765 0.011029938 -0.1438669 -0.11705135 0.073494345
0.054230414 -0.24050356 -0.038448945 0.066401646 -0.08426314 0.17496955 -0.10009564 -0.14889336
0.025334394 -0.15808648 -0.12577653 0.13519157 0.09842937 -0.13556643 -0.04621383 0.021651823
0.15909727 -0.14475527 0.00690456 0.15100674 0.016985122 -0.11570812 -0.13773242 -0.051991604

comp f4 [39, 8]
00000000: ac4e 13be 2500 753e 6330 af3d 089a 623d
00000010: 5a34 02be 5218 86bd 3c0e 443e f4f8 23be
00000020: 04bf b33e c25a d7be f876 d2be 5945 85be
00000030: 03ab ab3e 0216 8bbe c985 d3be 254a cabe
00000040: a7de b6be efdb d6be 9526 97bc 585b 223e
00000050: 3298 33be 2421 d6bd 54ea 6ebe f002 46be
00000060: 80d2 b1be 759a 9b3e 5275 873e 9125 d0be
00000070: 278b 3f3e 4fad ffbe 6921 703e c653 85be
00000080: 8786 98be d461 54be 8566 aa3e 391c b0bd
00000090: f0bd ae3e b22c e8be 3c1b 20be 684e e63e
000000a0: beb8 dd3e 24a0 c3bc 024b 483d 53e9 03bf
000000b0: 612f 3e3e 1001 8abb 398a 223f 7ac6 723e
000000c0: 0e24 dabd fb7a 293e 552d a4be d187 f7be
000000d0: 9981 b6bc 9cdd adbe fc9a bc3e 7a11 99be
000000e0: e7af e3be cf8a 4b3e 22ce e03e 61be f33e
000000f0: 7901 903e 035d b7bc e552 2abe 914d 133c
00000100: 8c73 a53e 7f30 5abe 1eba 94be 7b8b 9dbe
00000110: 5377 463e 17d3 bd3d a24b 37be cacc d8bc
00000120: a4ab b33e 3924 e23e dec1 843e 67c4 04be
00000130: a2ae 80bd 134f dd3e 0a63 d83e cf8b 9abe
00000140: dd61 32bd d430 d63e 6e77 4fbd f285 d23e
00000150: 7332 2abe 47b5 e93e fffc 1abf 951f 4ebe
00000160: ceee 5cbe 49a5 8a3e 4151 d3be 6a7e 043f
00000170: a6d5 3c3e 25ff e2be b8e1 1c3e 2a95 90bd
00000180: 69b8 6f3e a0cd 283c 545e 9c3d 245a e03e
00000190: de8f eb3e 6ace f8be 98d0 cc3e f9c2 033f
000001a0: 254e 7d3d 1d55 02bf 8920 04be bd09 0b3e
000001b0: 049a 663e c701 ad3e 30fc 7e3e 0f6b fbbe
000001c0: a546 a53e 311e dabe 986d a43e 42b4 d8be
000001d0: b405 b93e 3722 8d3e 5c59 193f df68 f4be
000001e0: 5283 0e3f bc71 a2be 0a16 8bbe db71 50be
000001f0: 1e14 143f e8a1 fbbd 012d 273d c65d 653e
00000200: 6878 10bf 9325 143c 98ae 973c c8cc c8be
00000210: 585f 593d 6796 883e cd4d b1be 8ad4 153e
00000220: 8677 86be 0e38 a4be adf3 92bd 69a8 0cbe
00000230: a3a6 223f 8d0a 013f 03f8 a0be 8725 14bf
00000240: df60 4abd d221 023f 739c 943e 069e 4e3d
00000250: 2834 0e3f 3a13 30be 827b f83c 8327 bbbe
00000260: ede0 de3e 8f46 b23d a508 e33e 0f35 64be
00000270: 8c69 d1be bfc2 a73d 6cc1 93bd 019f 8bbe
00000280: 43f9 803e edf3 02bf c649 64bc befa 55bd
00000290: f557 d0bd 8eb8 353e e330 633e e84b e03d
000002a0: c937 35be 7f8f 74be 8478 3abe 4bae ac3d
000002b0: d99b f4be b778 233f 3513 103f bf12 10bd
000002c0: 9395 d53c e270 5dbe 4892 d9be eac7 45bd
000002d0: 33d1 48bd 2696 fe3d 8e61 74be ffa0 ec3e
000002e0: 2348 d6bd 0445 80be b7f7 70be da2e 3a3e
000002f0: 5894 ce3d 172e 7cbe 9264 033e 1e52 d33b
00000300: 38f1 6dbe 9b40 cc3e 85f1 cebe 0fc2 043e
00000310: 1304 953e 2fb2 193d a041 87be 37c5 a9be
00000320: 1069 08be 2f4d 53bd a8fa 823d d28d ba3d
00000330: 4a3c b3be 61b6 9f3e 0758 dcbe 7c09 f53d
00000340: 870c 71be 02d7 a83e d900 8ebe d478 8bbe
00000350: 4b1b 413e c4d2 cabe 5ecf b63e 37fa 893e
00000360: d4da 533e 5b43 7b3e 0622 083e c8cd 903e
00000370: 60da febd e3b5 a63e 3d3b a63e b88e 1b3e
00000380: 42df cdbe b7c8 6ebe e2b1 d33d d043 e1be
00000390: cb58 90bd eed5 b0be aadb 09be c5ea b7bd
000003a0: 6858 8a3e bb5d 593e d15d af3c d32f ccbe
000003b0: 4db3 bdbe c0cc eebe e4bb 8b3e 3b41 8b3d
000003c0: b069 f3be 4781 e3be 786c 9d3e 482a e5bd
000003d0: 6974 113d 759f 8bbe 6ee8 653e 7448 81bd
000003e0: e20b 07be 9e9e c2be a207 79be c187 a33e
000003f0: 0947 e0bc aab9 f7be 16b4 d7be 0b77 213e
-0.1438548 0.23925836 0.08554151 0.055322677 -0.12715283 -0.065476075 0.19146055 -0.16012937
0.3510667 -0.4206143 -0.4110639 -0.2602947 0.3352891 -0.27165228 -0.41313007 -0.39509693
-0.35716745 -0.4196467 -0.018451015 0.15855157 -0.17538527 -0.1045554 -0.23331577 -0.19337058
-0.3473091 0.3039128 0.26456696 -0.4065366 0.18705426 -0.4993691 0.23450245 -0.26040477
-0.29790136 -0.20740443 0.3328134 -0.08599133 0.34129286 -0.453466 -0.15635389 0.44981694
0.4330501 -0.023880072 0.048899658 -0.515279 0.18572761 -0.0042115524 0.6349216 0.23708525
-0.10651408 0.1655082 -0.32065836 -0.48345807 -0.022278594 -0.33958137 0.36836994 -0.29896146
-0.4447014 0.1987717 0.43907267 0.47606185 0.28126124 -0.022383219 -0.16633184 0.008990661
0.32314718 -0.21307562 -0.29048246 -0.30770478 0.19381456 0.09268778 -0.17899945 -0.026464839
0.3509189 0.4416826 0.2592916 -0.12965547 -0.062833086 0.4322439 0.4226306 -0.3018479
-0.04355036 0.41834128 -0.050651006 0.41117817 -0.16620807 0.45646116 -0.6054229 -0.20129235
-0.21575472 0.27079228 -0.4127293 0.5175539 0.18440875 -0.44335285 0.1532048 -0.07059701
0.2341019 0.010302931 0.07635179 0.43818772 0.460082 -0.4859498 0.40002894 0.5146938
0.061842103 -0.5091112 -0.12903036 0.13577934 0.2251969 0.33790419 0.2490089 -0.49105117
0.3228046 -0.4260116 0.32114863 -0.42325026 0.36137164 0.27565166 0.59901977 -0.4773626
0.5566913 -0.31727397 -0.27165252 -0.20355932 0.57843196 -0.122867405 0.040814403 0.22399053
-0.56433725 0.0090421615 0.01851587 -0.39218736 0.053069443 0.26677248 -0.3462967 0.14631858
-0.26263064 -0.32074016 -0.07175384 -0.13736118 0.6353552 0.50406724 -0.31439218 -0.5786976
-0.04940879 0.50832856 0.2902561 0.05044367 0.55548334 -0.17194834 0.03033233 -0.36553583
0.4353098 0.08704864 0.44342533 -0.22285865 -0.40900838 0.08191442 -0.07214627 -0.27269748
0.25190172 -0.5115345 -0.013933605 -0.05224108 -0.101730265 0.17746183 0.22186618 0.10951978
-0.17697062 -0.23882864 -0.18210036 0.08431681 -0.47775152 0.6385607 0.5627931 -0.035174128
0.0260723 -0.21625093 -0.42494416 -0.048286356 -0.049027633 0.12430982 -0.23865339 0.4621658
-0.10462978 -0.25052655 -0.23531996 0.18181935 0.10086888 -0.24626957 0.12831333 0.006448998
-0.23236549 0.3989304 -0.4041864 0.12964652 0.2910467 0.037523445 -0.26417255 -0.33158275
-0.13321328 -0.05158728 0.06395465 0.09109081 -0.35006934 0.31193832 -0.4303591 0.119646996
-0.23539935 0.32976538 -0.27735022 -0.27240622 0.18858068 -0.39613926 0.35705084 0.2694871
0.20688945 0.24537413 0.13294229 0.28282 -0.124439955 0.32560644 0.3246707 0.15191162
-0.40209395 -0.23318754 0.10336663 -0.4399705 -0.07048186 -0.34538215 -0.13462701 -0.089803256
0.27020574 0.21227162 0.02140704 -0.39880237 -0.37050858 -0.46640587 0.27291787 0.06799551
-0.4754157 -0.44434568 0.30746818 -0.11189705 0.035511408 -0.27270094 0.22451946 -0.063126475
-0.13188127 -0.3801164 -0.24319318 0.3193951 -0.027377622 -0.48383838 -0.42129582 0.15768068

root f4 [128, 128]
00000000: df0a dbbd b0c2 033d 4497 9bbd fe68 183d
00000010: 3d9f a93c 4449 c43c d248 043a 15de 8c3d
00000020: 781a 1f3c 7fdc 003d e917 993d 3a85 ab3c
00000030: 287c 83bd 04e2 083c 881f d03d 7dd6 c93d
00000040: 5743 efbd aaf6 003e 0e7e 223d b373 6c3d
00000050: c7e5 2ebe 16fb 25bd 6ad0 dcbd d7ce f33b
00000060: 7105 9ebc 06ab e1bd 77bd 48bd a6eb a33d
00000070: 82ec efbc 78f4 973b 89ae 203e cadd 07be
00000080: df18 e9bd 15ce 18bc 50d6 01be 3f08 e5bd
00000090: b476 4a3d 3d36 11be 4aa5 853c 57e2 8c3d
000000a0: edc9 e43d 4135 51ba 20fd 5fbc a766 43bd
000000b0: f1f6 c0bd b8f3 c03d 4c53 a53c 2cc1 083e
000000c0: d513 913d 2c41 90bd 488f 36bd 97a4 c5bd
000000d0: 0d51 303e 21b8 083e 8ecf 0f3a 2f3b 033e
000000e0: 85cc 803d a1fa bfbd 1c7f 923d f84d a9bd
000000f0: 8210 f33d 832d 253e 6de0 233c 115d c53b
00000100: 4dac 06bd dad1 97bc 27fa 3c3e 223d d1bd
00000110: 76fa e53c 36bf 7ebd 13d8 fe39 2535 b1bb
00000120: 3306 b03d f8f3 093d 420e b3bc 199e 66bd
00000130: 6f08 fc3d cb17 2d3d 2995 ef3d f8f3 c73d
00000140: 1931 c63d 4cfc 4c3d c2c4 2f3d e673 03be
00000150: 4a5a 03be 10e4 87bd 9840 763d ccfa b33c
00000160: eed6 14bd bbc5 a2bd 507b a0bd 3301 31bd
00000170: 74b0 ee3d 5511 de3c 922a e6bd a95c 063e
00000180: 829d dd3d 49c0 96bd 0f95 553d 6104 093d
00000190: 6f66 cd3d c498 0ebe 2561 14bd badf edbd
000001a0: d2f6 d23c c36e 813d 8824 883d 8064 2f3d
000001b0: 9401 f9bd f19d a0bc a565 083e 2c1c 813c
000001c0: e2fd f4bd 435b 763b 5aa9 383d 5f1e 69bc
000001d0: 5905 67bd 6052 f33c 3a4f 903a 55c9 ef3a
000001e0: a9df 9e3d f1a0 2c3d cf2f f33c f250 b0bd
000001f0: e365 c6bd af1f 343d d8ed 763d 1030 ab3d
00000200: 43ef c1bd b92c a6bd 6b94 a5bd 6440 093e
00000210: dfd6 9ebd 1bd5 f9bd 9fd0 26bc 6d57 033b
00000220: 1173 5f3d 2c4a fe3d b156 b23d f240 e8bd
00000230: c979 e4bd f91b 083e c7d0 d63c 21d5 eb3d
00000240: f41d 4cbd 02ff 813d 6d1c d8bd 2e63 2dbc
00000250: 7c61 083e 979d a33b 9cac 463d 188a 203c
00000260: 9a1f 05be 7ccf e8bc 2e5b 8abc f253 b23d
00000270: bdde 793d f15f 90bd cf45 a73d ad01 153e
00000280: 597f d8bd fd1c e7bc 25ba 81bc fc69 9e3d
00000290: a9d0 dfbd 899d af3d 4984 dbbd 0ed3 6c3c
000002a0: 0a4d 7a3c 9a43 92bc d626 883d b0fb 8fba
000002b0: 347c 9cbd 821b 0d3e 83e4 abbd 9640 783c
000002c0: 6d95 8e3d 7dee 32bd 1c60 c5bd 794c aa3d
000002d0: 919f 143e b393 bfbd fd0d 64bd c090 c13c
000002e0: 2b1c 6d3d 9e6c 00bd 730c cd3d 0bd7 0b3e
000002f0: daf5 ba3d 6c42 0dbe a022 ee3d 29d8 d3bd
00000300: 7221 bd3b 3180 4e3d b8a1 563d 14ef c0bd
00000310: 6a32 1f3d 7eb1 e3bd ed03 74bd 8f56 143e
00000320: ddf1 f13d 5ca0 e3bc c6af e63d ed0c bc3c
00000330: 74a7 9d3d bf03 c7bc 4537 033e 1d07 cbbd
00000340: 09b2 4dbd ccc8 ff3d 61b1 53bd 64f7 8d3d
00000350: 9af8 71bd 85d2 debd cd5d 16bd d85f 62bd
00000360: 978d c3bd 02dd 123e 3a09 ef3c 9bfa d83d
00000370: 1dc9 843d ad5c a53d 95a0 ae3d 24cd e43c
00000380: dba5 9f3d da8a 8b3d 94f8 033d d47e a6bd
00000390: 8417 f0bc a622 153e 5ecf ddbd d035 c1bd
000003a0: 3532 c0bd c1cb 543d 3482 a2bc 321d 013e
000003b0: 404d 18bd 0930 c5bd ebce 883d 3a55 763d
000003c0: 9a3a 7dbd 172e 00be 5312 9ebd 067a ef3a
000003d0: 370c 823d 92d0 0b3e 28dc c13d 2c6d cfbd
000003e0: 6436 183e ff8a ef3d f728 123e bdd1 8d3d
000003f0: 3518 b53d 4297 083d 192f 973d 2b9c 9c3d
-0.10695433 0.03216809 -0.07597211 0.037209503 0.020705814 0.023960717 0.00050462515 0.06878296
0.0097109005 0.03146028 0.074752636 0.02093755 -0.06420165 0.008354668 0.10162264 0.098553635
-0.11682766 0.12594095 0.039670996 0.057727527 -0.1707984 -0.040522657 -0.10781939 0.0074404287
-0.019289704 -0.11018948 -0.049008813 0.08003931 -0.02928758 0.0046372972 0.1569158 -0.132682
-0.11381697 -0.009326478 -0.1267941 -0.111832134 0.04942961 -0.14180847 0.016314168 0.068791084
0.11171327 -0.0007980653 -0.01367119 -0.04770532 -0.094221 0.09421486 0.02018132 0.13354939
0.07083861 -0.070436805 -0.044570237 -0.09650534 0.17218418 0.1335149 0.0005485945 0.12815545
0.06289009 -0.093739755 0.071531504 -0.082668245 0.11868383 0.16130643 0.010002238 0.0060230573
-0.032879163 -0.018532682 0.184548 -0.10216738 0.02807353 -0.06219407 0.00048607643 -0.0054079466
0.085949324 0.033679932 -0.021857385 -0.056303117 0.12306296 0.04225902 0.11698372 0.0976333
0.096773334 0.050045297 0.042912252 -0.1283718 -0.12827411 -0.06635296 0.060120195 0.021970175
-0.036337785 -0.0794787 -0.0783602 -0.043214034 0.116547495 0.027107874 -0.112385884 0.13121285
0.10821058 -0.07360894 0.052144106 0.03345144 0.10029303 -0.13925463 -0.036225457 -0.11614938
0.025752459 0.06319954 0.06647593 0.042820454 -0.12158504 -0.019606562 0.13320024 0.015760504
-0.11962487 0.0037591017 0.04508338 -0.014228432 -0.056401584 0.029702365 0.001100994 0.0018294255
0.077575035 0.042145673 0.029685883 -0.08609189 -0.09687402 0.04397553 0.06028542 0.083587766
-0.09469464 -0.08113999 -0.08084949 0.1340347 -0.07755827 -0.1219885 -0.010181575 0.0020041123
0.054553095 0.12416491 0.08707941 -0.11340512 -0.11156041 0.1329192 0.0262226 0.115152605
-0.049833253 0.06347467 -0.10552297 -0.010582728 0.13318437 0.0049931514 0.048504457 0.009798549
-0.13000336 -0.028419249 -0.016889181 0.087074175 0.061003435 -0.07049549 0.08167612 0.1455142
-0.10571165 -0.028212065 -0.015835831 0.07735059 -0.10928471 0.08574969 -0.10718591 0.014454616
0.015277157 -0.0178545 0.06648032 -0.0010985043 -0.07640877 0.13780025 -0.083931945 0.015152117
0.069620945 -0.04368447 -0.09637472 0.08315367 0.14513995 -0.09354343 -0.055677403 0.023628592
0.05788819 -0.031353585 0.1001214 0.13656251 0.09128924 -0.13794869 0.11627698 -0.10343964
0.0057718093 0.05041522 0.05240032 -0.094206005 0.038866438 -0.11117838 -0.059574056 0.14486144
0.1181371 -0.027786426 0.11263995 0.022955382 0.07697955 -0.024293778 0.12814052 -0.09913466
-0.050218616 0.12489471 -0.051682834 0.06931952 -0.059074976 -0.10879997 -0.03671055 -0.055267185
-0.095484905 0.1434212 0.029179204 0.10594674 0.06483672 0.08074317 0.08526722 0.02792985
0.07795306 0.06813593 0.032219484 -0.08129659 -0.029308088 0.14563999 -0.10830568 -0.09434092
-0.09384576 0.051952127 -0.019837476 0.12608793 -0.037183046 -0.096283026 0.066800915 0.060139872
-0.061823465 -0.12517582 -0.07718339 0.0018270619 0.06349986 0.13653782 0.094658196 -0.10128245
0.14864498 0.11696433 0.1427344 0.0692477 0.08842508 0.033347376 0.0738203 0.07646974

bias f4 [128]
00000000: 35d0 8bbb 6ab2 d53a 3be8 9139 6e08 453b
00000010: d87d aa39 4bb0 8bbb fd22 0c3b 88ca 65bc
00000020: 21ac 30bc bb07 0c3b 7989 433c 70bd 24bb
00000030: 8f5b f7bb 7d84 c0bb 93b9 b53c 910a 653c
00000040: 5238 053c 399d 62bb 76fb 42bb c544 443b
00000050: 85a0 b63a 1824 9e3a f2db 453b 8cd0 bbb9
00000060: 9e53 5dbc 2647 6fbb 2226 423a 8d41 25bc
00000070: e4c9 7a3c 0ef5 cc3b 1b3a 9a3b db37 42bc
00000080: 8b81 1839 bfd9 233c fb38 29bc 2ffe 15bb
00000090: 324a 5db9 9196 623b c91d 2c3b 3e44 523c
000000a0: 9533 133c 525a 13bc 5bbc 233c 0e65 b8ba
000000b0: e9bf 373b b0bc f83a 2801 143b 5bf5 c63a
000000c0: 22cc 1e3a 950e fe3a ee1e 81bb a9a5 c83b
000000d0: c6d5 98bb 7b7c 27bc 89ad acbb 3767 32bc
000000e0: dac5 9e3b 3ae1 18bc 19fa 3dbc 4c53 0e3c
000000f0: 3483 adbb 08fb b9b9 1107 0d3c 00b4 c4bb
00000100: bc8b f03b 21e5 dbbb f8f4 02bc bdd8 933c
00000110: 2c89 c239 da19 80bb 3d8a 243a 6ce5 813b
00000120: 18d0 1b3b 0e00 79bc b4f3 e83b 22e5 34bc
00000130: 526d 1fbc 5c2e 1abb 09bb 133c d761 87ba
00000140: 8551 41bc b34a 333c 7370 f2ba 6516 913c
00000150: b431 853b e4d4 213c 6799 1dbb 844b 63bc
00000160: ed6b 20bc c585 1eb9 b988 97ba 4cb8 a339
00000170: 652e 97ba 2e96 fb3b 74f6 e1bb f859 81bb
00000180: 744a 0f3c 225b fd3b 86de cd3b 48f8 fbbb
00000190: e1f0 51ba e9e4 c2bb d73e 903b 4947 213a
000001a0: 4b9a b638 75fb 3e3b f7f2 bebb 5fec c0ba
000001b0: ae86 f4ba 6580 14bc db60 d8bb cb49 453b
000001c0: 6b23 3a3c 3a4c caba 2f49 9d3b d697 91ba
000001d0: c327 9abb 3af0 773b 27b0 183c c0fc bb3b
000001e0: 60a4 02bc c552 9a3c 04e1 9ebb 316a 5bbb
000001f0: 500e 67bb 39a2 163c de2f 8e3a ef78 ca3b
-0.0042667636 0.0016303782 0.0002782958 0.003006484 0.00032518688 -0.004262959 0.002138316 -0.014025338
-0.010783226 0.0021366912 0.0119346315 -0.0025137328 -0.0075487564 -0.005875169 0.022183215 0.01397957
0.008131104 -0.0034578575 -0.0029751933 0.0029948216 0.0013933337 0.00120652 0.0030190912 -0.000358228
-0.013508705 -0.0036510914 0.0007406195 -0.010086429 0.015306924 0.0062547987 0.0047066337 -0.011854137
0.00014544108 0.010000645 -0.010328527 -0.00228871 -0.00021103842 0.0034574608 0.002626287 0.012833653
0.008984466 -0.008993702 0.009993638 -0.0014068203 0.0028037971 0.0018977132 0.0022583697 0.0015179323
0.000605764 0.0019383008 -0.0039404547 0.006123264 -0.0046641557 -0.01022255 -0.0052697104 -0.010888866
0.004845363 -0.009331042 -0.011595272 0.008686852 -0.0052951816 -0.00035472983 0.008607642 -0.006002903
0.0073408764 -0.006710664 -0.007992975 0.018047685 0.00037104764 -0.0039093317 0.00062767026 0.003964117
0.0023775157 -0.015197767 0.00710913 -0.011040958 -0.009730654 -0.0023526167 0.009016761 -0.0010328841
-0.011799221 0.010943103 -0.0018496647 0.017710874 0.004064763 0.009877417 -0.0024047734 -0.013872985
-0.0097913565 -0.00015117887 -0.0011561132 0.00031227095 -0.0011534212 0.007677815 -0.0068958346 -0.0039474927
0.008745778 0.007731811 0.0062826304 -0.0076895095 -0.0008008611 -0.0059476984 0.0044020223 0.0006152285
8.7071756e-05 0.002914158 -0.0058273035 -0.0014718882 -0.001865586 -0.009063815 -0.006603343 0.0030103798
0.011360983 -0.0015434094 0.004799984 -0.0011107873 -0.004704447 0.0037832395 0.009319342 0.0057369173
-0.00797376 0.018838296 -0.0048486013 -0.0033480043 -0.0035256334 0.00919395 0.0010848006 0.006178967
